server/api/models/static/audio-classifier.pt (torch, 165165 bytes, 34 tensors)

features.0.weight f4 [32, 1, 80]
0	0x3e34d808	0.17660534
1	0x3e4cfd16	0.2001842
2	0x3d285ae0	0.04110229
3	0x3e2398fa	0.15976325
4	0x3cdc7d91	0.026915343
5	0x3d46af14	0.04850681
6	0xbc669be1	-0.01407525
7	0x3e061cb0	0.13096881
8	0x3df7e191	0.1210357
9	0xbd9ae78c	-0.07563695
10	0x3d801175	0.0625333
11	0x3bd33be8	0.0064463504
12	0x3d5acb7d	0.053416718
13	0x3beac2a7	0.0071643176
14	0x3d45f408	0.04832843
15	0xbd23d4db	-0.039997917
16	0x3db91436	0.09037058
17	0xbc1ae1d1	-0.009453253
18	0xbd92a15f	-0.07159685
19	0x3d137a4d	0.036005307
20	0xbd182846	-0.037147783
21	0xbc9ad2e9	-0.018899398
22	0xbd8860ca	-0.06659086
23	0x3cdccdaf	0.026953546
24	0xbe00b3c5	-0.12568577
25	0xbd897ab8	-0.0671286
26	0xbc71a066	-0.014747715
27	0xbd5e863e	-0.054327242
28	0xbb74cc05	-0.003735305
29	0xbe0d735c	-0.13813537
30	0x3d805de2	0.06267907
31	0xbddaca9b	-0.10683175
32	0x3d67a185	0.05655052
33	0xbd146f70	-0.036239088
34	0xbd7b4252	-0.061342545
35	0x3da3edd3	0.08004346
36	0x3d503877	0.0508351
37	0x3ddc5c64	0.107598096
38	0x3d4cd0fb	0.050003987
39	0x3c6c3787	0.014417536
40	0x3d9370be	0.07199238
41	0xbab51dd8	-0.0013818098
42	0x3d492f10	0.049117148
43	0x3ddef630	0.108868
44	0x3dff55f0	0.12467563
45	0xbca705db	-0.020388534
46	0x3da6d671	0.0814637
47	0x3b8dd5e9	0.0043284786
48	0x3ca5c847	0.020237101
49	0xbdc13bd4	-0.094352394
50	0xbded5d94	-0.11590114
51	0xbd3c64fd	-0.045994747
52	0xbd8f8c5e	-0.07009195
53	0x3dc36a5b	0.0954177
54	0x3d4b88e4	0.049691096
55	0x3cbdc1fd	0.02316379
56	0x3b16c44e	0.002300519
57	0xbcb48486	-0.022035848
58	0x3d995ebf	0.074887745
59	0xbd8aa854	-0.06770387
60	0x3d0e8762	0.03479708
61	0xbcd24d47	-0.025671614
62	0x3dc78bab	0.097434364
63	0x3c8d7d8a	0.017271776
64	0x3d833f33	0.06408539
65	0xbd137004	-0.0359955
66	0x3d643885	0.055717964
67	0xbdedcf9c	-0.11611864
68	0xbde0095c	-0.10939285
69	0xbda8f5b0	-0.08249986
70	0x3da977d9	0.08274812
71	0x3d6fd0a2	0.058548577
72	0x3e1b1a08	0.15146649
73	0xbcb7410c	-0.022369884
74	0xbd169317	-0.03676137
75	0xbd04c869	-0.03241769
76	0xbd30c436	-0.04315587
77	0x3d0270eb	0.03184597
78	0xbb523595	-0.0032075394
79	0x3d1a82c0	0.03772235
80	0xbb48150d	-0.0030530125
81	0xbcfab042	-0.030601624
82	0x3da3e4ae	0.080026016
83	0xbd7dac79	-0.06193206
84	0x3c56c098	0.013107441
85	0xbd528d4a	-0.051404275
86	0x3d9e7bca	0.07738455
87	0xbd17743c	-0.036976084
88	0xbce18987	-0.027531398
89	0x3c938ad7	0.01801054
90	0x3c5806b9	0.013185197
91	0xbbf45b33	-0.007457161
92	0x3d633e21	0.055479173
93	0x3d8955c0	0.06705809
94	0xbd9bc2bd	-0.07605503
95	0xbd76a79d	-0.060218442
96	0x3dfb6336	0.12274782
97	0xbc53a90b	-0.012918721
98	0xbda48b90	-0.08034432
99	0xbddc6546	-0.10761504
100	0xbd673f88	-0.056457072
101	0xbb28a0e8	-0.0025730673
102	0xbdc15fdb	-0.09442111
103	0xbe4a075c	-0.1972937
104	0xbdf8a4aa	-0.12140782
105	0xbe0eefa4	-0.13958603
106	0xbe01b036	-0.12664875
107	0xbda8101c	-0.082061976
108	0xbe0683cf	-0.13136218
109	0xbdf6df03	-0.12054255
110	0x3d376625	0.044775147
111	0xbd15aa44	-0.03653933
112	0xbcf72487	-0.030168785
113	0xbe424c73	-0.18974476
114	0xbddc1364	-0.10745886
115	0xbd46358d	-0.048390914
116	0xbc97882e	-0.018497553
117	0xbe05ed2d	-0.13078757
118	0xbe048fd7	-0.12945496
119	0xbe055edf	-0.13024472
120	0xbd466b19	-0.04844198
121	0xbd94ee1f	-0.072719805
122	0xbcfd15dc	-0.030894212
123	0xbd741aa2	-0.05959571
124	0xbd483d5c	-0.04888664
125	0xbceb5720	-0.028728068
126	0x3b801fd9	0.0039100465
127	0xbddd39d8	-0.108020484
128	0x3da064ab	0.07831701
129	0xbd369725	-0.044577736
130	0x3d2c6c54	0.042095497
131	0x3c229d01	0.009925128
132	0xbdc80083	-0.097657226
133	0x3dcfd372	0.10147752
134	0xbc4033d8	-0.0117311105
135	0x3d0ee6cf	0.034888085
136	0xbd9865f6	-0.074413225
137	0xbdea8c33	-0.11452522
138	0x3c079463	0.008275124
139	0xbdab5a70	-0.08366859
140	0x3cf0179d	0.029308135
141	0xbde5a212	-0.11212553
142	0x3d4b569a	0.049643137
143	0xbd81678e	-0.063185796
144	0x399d903f	0.00030052845
145	0x3a7e8099	0.00097084936
146	0x3b15f3e3	0.0022880964
147	0x3d127b02	0.03576184
148	0x3d465cc9	0.04842833
149	0xbd90d5df	-0.07072043
150	0x3cccbf95	0.024993697
151	0xbd445044	-0.04792811
152	0x3cf907e8	0.030399278
153	0xbd95093b	-0.07277151
154	0x3dacf253	0.08444657
155	0xbd955998	-0.07292479
156	0x3d56c530	0.052434146
157	0x3cd31fe5	0.025772044
158	0x3d1adb61	0.037806872
159	0xbd16f1e2	-0.03685177
160	0x3b7246df	0.0036968512
161	0xbdb9f0d8	-0.090791404
162	0xbdd927c9	-0.106032915
163	0xbe45586b	-0.1927201
164	0xbc297bdb	-0.010344471
165	0xbd3865d4	-0.045018986
166	0xbdbbe029	-0.091736145
167	0x3d291bc1	0.041286234
168	0x3cfe796f	0.031063763
169	0xbb6651b5	-0.0035143916
170	0xbc4be155	-0.01244386
171	0x3d37128b	0.04469542
172	0x3d92e143	0.071718715
173	0xbd8c7500	-0.068582535
174	0xbdca0146	-0.09863524
175	0xbd612547	-0.05496719
176	0xbdc899a5	-0.0979493
177	0x3d35a892	0.044350214
178	0x3dd385f3	0.10328283
179	0xbdf7542a	-0.120766
180	0xba65baea	-0.0008763509
181	0x3d86928f	0.065709226
182	0x3cd766ef	0.0262942
183	0xbd26fd5a	-0.04076896
184	0x3d454ab7	0.048166957
185	0x3d85248d	0.06501112
186	0x3d8338f4	0.06407347
187	0x3c23d583	0.009999636
188	0xbc3e0143	-0.0115969805
189	0x3cb39964	0.021923728
190	0xbd2c5ad8	-0.042078823
191	0xbd7020a5	-0.058624882
192	0x3d9cf1ce	0.07663308
193	0x3dc59702	0.09647943
194	0x3bbead51	0.005819001
195	0xbc730971	-0.014833794
196	0x3a8af9bb	0.001060299
197	0x3ceccb10	0.028905421
198	0x3d761fb2	0.06008882
199	0x3d43c403	0.047794353
200	0xbdbca9e0	-0.092120886
201	0xbc7120c3	-0.014717284
202	0x3dea7942	0.11448909
203	0x3dcb0cb4	0.09914532
204	0x3d21ee17	0.0395337
205	0xbc6ceb82	-0.014460446
206	0xbd460381	-0.048343185
207	0xbdcc9681	-0.09989644
208	0xbc8a5d37	-0.016890151
209	0x3d6c04c1	0.05762172
210	0x3e0f6c68	0.14006197
211	0x3dd5493b	0.10414358
212	0xbde4b7bf	-0.11167859
213	0xbd4e647b	-0.050388794
214	0xbbd828db	-0.006596667
215	0x3de012d8	0.10941094
216	0xbb2c68c6	-0.0026307567
217	0xbd90c863	-0.07069471
218	0x3d49923a	0.04921172
219	0xbc7cb4cc	-0.015423965
220	0xbc917275	-0.017754773
221	0x3df38bea	0.11891921
222	0xba820e94	-0.0009922558
223	0xbcb98cb6	-0.022650104
224	0xbdc9bf72	-0.098509684
225	0x3cf84178	0.030304655
226	0x3da0788e	0.07835494
227	0x3d83c2f7	0.06433671
228	0xbd613bd1	-0.054988686
229	0xbd407e0f	-0.04699522
230	0xbbda7f35	-0.0066679963
231	0x3e267596	0.16255793
232	0x3da92c15	0.08260361
233	0x3dacc72b	0.08436426
234	0x3d98e68a	0.07465847
235	0x3b0f7559	0.0021890013
236	0x3c8f42d9	0.01748793
237	0xbd17a05c	-0.037018165
238	0xbda64079	-0.08117766
239	0xbe02b0da	-0.12762776
240	0x3d36866a	0.04456178
241	0x3cba2ac0	0.022725463
242	0x3d16323e	0.03666901
243	0x3c83d2f8	0.016091809
244	0x3d848555	0.064707436
245	0x3d1b15d3	0.03786261
246	0x3d0b71f4	0.03404422
247	0x3da1bd06	0.078973815
248	0x3c064210	0.008194461
249	0x3e06a65b	0.13149397
250	0x3d0a0639	0.03369734
251	0xbbb19124	-0.0054189134
252	0x3d5b30f7	0.053513493
253	0x3d952d52	0.07284035
254	0x3da01aff	0.07817649
255	0xb728a6ae	-1.00523885e-05

features.0.bias f4 [32]
0	0xbd97ca75	-0.074116625
1	0x3b29aa24	0.0025888765
2	0x3db01898	0.08598441
3	0x3d92a0f0	0.07159603
4	0x3bed4664	0.007241057
5	0x3d91b1c7	0.071139865
6	0x3d0d2238	0.03445646
7	0x3dba7acc	0.09105453
8	0x3d413add	0.047175277
9	0x3d483f37	0.04888841
10	0x3ca89849	0.020580428
11	0xbd57ed58	-0.052716583
12	0x3ce954d1	0.028482826
13	0x3df166d6	0.117871925
14	0x3d80a4a7	0.06281405
15	0xbe0dad0a	-0.1383554
16	0x3b0fbc2a	0.0021932223
17	0xbd2dc7de	-0.042426936
18	0xbde04ac4	-0.109517604
19	0x3dcba71b	0.09943982
20	0x3d072a93	0.032999586
21	0x3cbae0c0	0.022812247
22	0x3d985696	0.0743839
23	0xbd5dcadb	-0.054148536
24	0xbd87807e	-0.06616305
25	0xbd883a59	-0.06651754
26	0x3c4c5d17	0.012473366
27	0xbde9545a	-0.11393042
28	0x3de3d99f	0.11125492
29	0xbd058f82	-0.032607563
30	0xbcc80381	-0.024415733
31	0x3db82cb7	0.08992904

features.1.weight f4 [32]
0	0x3f7e75f1	0.99398714
1	0x3f8331a2	1.0249522
2	0x3f6cd64d	0.925145
3	0x3f91a062	1.137707
4	0x3f72c212	0.9482738
5	0x3f7de04c	0.99170375
6	0x3f6d2206	0.9263004
7	0x3f82736a	1.0191472
8	0x3f7e662f	0.9937467
9	0x3f752e28	0.95773554
10	0x3f80f1b9	1.0073768
11	0x3f7a23b7	0.97710747
12	0x3f828214	1.0195947
13	0x3f6eec36	0.9332918
14	0x3f78b1cd	0.971463
15	0x3f8a3edf	1.0800437
16	0x3f7dc3ba	0.9912678
17	0x3f8a02d3	1.0782112
18	0x3f7966bf	0.97422403
19	0x3f7a9b3b	0.9789311
20	0x3f88c0c6	1.068383
21	0x3f787379	0.970512
22	0x3f80b0ab	1.0053915
23	0x3f7f94f4	0.9983666
24	0x3f7bd176	0.9836649
25	0x3f819cd0	1.012598
26	0x3f740a01	0.95327765
27	0x3f805462	1.0025752
28	0x3f7bcb94	0.9835751
29	0x3f75aecc	0.95969844
30	0x3f6f41ad	0.9345959
31	0x3f7b6518	0.9820113

features.1.bias f4 [32]
0	0x3d548181	0.051881317
1	0x397c5cc5	0.00024067152
2	0x3cbae3f0	0.022813767
3	0x3e04974b	0.12948339
4	0x3da73d14	0.081659466
5	0x3ca1c6d7	0.019748135
6	0xbde0386b	-0.10948261
7	0x3d30023f	0.042970892
8	0xbd08ca91	-0.033396307
9	0xbd4a0d78	-0.04932925
10	0xbd8f5053	-0.069977425
11	0x3d6c48d6	0.05768665
12	0x3d34db82	0.04415465
13	0x3df1d994	0.11809078
14	0xbe2f4319	-0.1711544
15	0x3e04a7f7	0.12954699
16	0x3ca34119	0.019928502
17	0x3e0c843c	0.13722318
18	0x3d8e35fa	0.06943889
19	0x3d8193fa	0.063270524
20	0x3e132a24	0.14371544
21	0x3c43e411	0.011956231
22	0x3dd2aadd	0.10286496
23	0xbdd98e1f	-0.106228106
24	0x3e16b3d3	0.14717035
25	0xbd12bfbf	-0.035827395
26	0x3dfc2cf5	0.123132624
27	0x3d922923	0.071367525
28	0x3d94376e	0.07237135
29	0x3cff64e9	0.031176047
30	0x3c1d820d	0.009613526
31	0x3d7206a9	0.059088383

features.1.running_mean f4 [32]
0	0xbd8f5aa9	-0.06999714
1	0x3b9a0438	0.00470021
2	0x3da6acb6	0.08138411
3	0x3d9487d8	0.07252473
4	0x3bbb2639	0.0057113436
5	0x3d8c75a7	0.06858378
6	0x3d086e23	0.03330816
7	0x3dbc64f2	0.09198941
8	0x3d45b934	0.048272327
9	0x3d41da67	0.047327425
10	0x3c928379	0.017884957
11	0xbd50ec0c	-0.05100636
12	0x3cea7440	0.028619885
13	0x3df37d51	0.118891366
14	0x3d841b49	0.06450517
15	0xbe0c9313	-0.1372798
16	0x39e81538	0.00044266297
17	0xbd2fea7a	-0.042948224
18	0xbde74a16	-0.11293428
19	0x3dc5758f	0.09641563
20	0x3d168bb4	0.036754325
21	0x3cc7e30f	0.024400262
22	0x3d91fde8	0.07128507
23	0xbd60e11d	-0.054902185
24	0xbd835773	-0.06413164
25	0xbd887466	-0.06662826
26	0x3c0cbc0a	0.008589754
27	0xbddc0f6b	-0.10745128
28	0x3de24fe2	0.11050393
29	0xbd0fe2fb	-0.035128575
30	0xbcb813b1	-0.022470327
31	0x3db55725	0.08854512

features.1.running_var f4 [32]
0	0x39e3d5cd	0.00043456108
1	0x39a57b28	0.0003156301
2	0x39b70b71	0.00034913004
3	0x395d8252	0.0002112475
4	0x3990f658	0.0002764936
5	0x39f4dcca	0.00046703807
6	0x39c7da93	0.00038119088
7	0x3a10707f	0.0005509927
8	0x39ee7d38	0.00045488193
9	0x398321c9	0.0002501144
10	0x3997264a	0.00028829492
11	0x39e5f497	0.00043860517
12	0x395fef63	0.00021356116
13	0x3997d6f3	0.00028961114
14	0x39a12cb7	0.00030741628
15	0x39417d2f	0.00018452549
16	0x39f2d690	0.00046317698
17	0x39810da9	0.00024614975
18	0x39f3cee4	0.00046502717
19	0x39dfcef9	0.0004268808
20	0x3905ac8e	0.0001274815
21	0x39ddea8b	0.00042327153
22	0x39a0c476	0.00030663953
23	0x3982188b	0.00024813818
24	0x39d683f4	0.00040915573
25	0x3996cb9f	0.0002876194
26	0x397b4cf3	0.00023965891
27	0x395e7af2	0.0002121737
28	0x3a5965e9	0.0008293079
29	0x39a5806a	0.00031566928
30	0x39f8c455	0.00047448525
31	0x39a52c49	0.00031504247

features.4.weight f4 [32, 32, 3]
0	0x3d90af83	0.07064726
1	0x3cf2ccd3	0.029638683
2	0x3ce716fb	0.0282092
3	0x3d6c5dbe	0.057706587
4	0x3dbefcfd	0.093255974
5	0x3db2a908	0.087236464
6	0x3d49ca45	0.049265165
7	0xbc285e32	-0.010276364
8	0xbe125a13	-0.14292173
9	0xbce22ba5	-0.027608702
10	0xbda82e72	-0.08211984
11	0x3d5653b5	0.052325923
12	0xbdb79d43	-0.08965542
13	0x3d8eac61	0.069664724
14	0xbc8a8cde	-0.016912874
15	0xbc1e8154	-0.009674389
16	0x3c058986	0.008150464
17	0xbd688f79	-0.05677745
18	0x3e0a8ea9	0.13530983
19	0x3c1e365d	0.009656516
20	0x3d5e958d	0.05434184
21	0xbdb69734	-0.089155585
22	0xbd38a6d6	-0.045080982
23	0xbcaec0b0	-0.021332115
24	0x3dbb88d7	0.091569595
25	0x3d7e0582	0.06201697
26	0x3bbe6a21	0.0058109914
27	0xbd9bb500	-0.076028824
28	0x3ca3b887	0.01998545
29	0xbd9d2148	-0.076723635
30	0xbd8e2a17	-0.06941622
31	0xbbfcb040	-0.0077114403
32	0xbd6d6293	-0.057955336
33	0x3e09f57e	0.13472554
34	0xbd9a5c5c	-0.075371474
35	0x3d7ec6c0	0.06220126
36	0x3dbe57e5	0.09294108
37	0xbe030a16	-0.12796816
38	0x3d9f62e3	0.07782533
39	0xbd6e493b	-0.058175307
40	0x3caded8b	0.021231433
41	0x3ceb9237	0.028756244
42	0x3c5cf195	0.013485332
43	0x3b89d1ac	0.004205903
44	0x3da1e624	0.07905224
45	0x3b3ca0cf	0.0028782373
46	0xbdb180d8	-0.08667153
47	0x3c955695	0.018229762
48	0xbd96fb6a	-0.07372172
49	0xbd2c13b5	-0.04201098
50	0x3b400955	0.0029302437
51	0x3d1b64a0	0.03793776
52	0xbe2cfe08	-0.1689378
53	0x3c3c0385	0.0114754485
54	0xbdae132e	-0.08499752
55	0xbd5f043f	-0.05444741
56	0x3d2d52f9	0.042315457
57	0xbc053bae	-0.0081319045
58	0xbd66fa51	-0.056391064
59	0xbb131ab9	-0.0022446348
60	0x3c81c55c	0.015841179
61	0xbe1f61df	-0.15564679
62	0xbdb02692	-0.08601107
63	0xbe082baf	-0.13297914
64	0x3cd8847a	0.026430357
65	0xbdedb368	-0.11606485
66	0x3d00915f	0.031388637
67	0xbd01cdaf	-0.031690296
68	0xbd5b99c0	-0.053613424
69	0xbc546ac9	-0.012964913
70	0xbd7f4d33	-0.062329482
71	0xbced48e3	-0.02896542
72	0x3c5ba307	0.013405568
73	0xbdc74f89	-0.09731967
74	0xbd722c4a	-0.05912427
75	0x3d8349c2	0.064105526
76	0x3d7ee9f2	0.062234826
77	0xbd055d71	-0.032559816
78	0xbbbb23a5	-0.0057110363
79	0x3db89561	0.09012867
80	0xbdf7a89b	-0.12092706
81	0xbd8494be	-0.06473683
82	0xbd7c0c36	-0.061535083
83	0xbd2b0012	-0.041748114
84	0xba1db6b1	-0.0006016298
85	0xbd955a8e	-0.072926626
86	0x3d145e2f	0.036222633
87	0xbdb874a3	-0.09006622
88	0x3d76534c	0.06013803
89	0xbdd85133	-0.105623625
90	0xbb921e52	-0.004459181
91	0x3c93c238	0.018036947
92	0xbd765bc9	-0.060146127
93	0x3db30602	0.0874138
94	0xbdd0839f	-0.10181355
95	0xbd49d472	-0.04927487
96	0xbc9e2093	-0.019302642
97	0x3e0460bc	0.12927526
98	0x3e18daca	0.14927211
99	0x3dc394a6	0.09549837
100	0x3d36e454	0.044651344
101	0xbd871313	-0.06595435
102	0x3d62f599	0.05541
103	0xbd3b3c64	-0.04571189
104	0x3d43e2fa	0.047823884
105	0xbd7ab90f	-0.061211642
106	0xbd8940f4	-0.06701842
107	0xbdf9b0a9	-0.121918984
108	0x3cc9f1e9	0.024651485
109	0x3b151672	0.0022748974
110	0xbd811e23	-0.06304576
111	0xbbff415e	-0.007789775
112	0xbd4b8a9c	-0.049692735
113	0xbd5e3d87	-0.054257896
114	0x3c5b8a99	0.0133997435
115	0xbd924a82	-0.071431175
116	0x3cb8fc78	0.022581324
117	0xbd5f32ef	-0.054491933
118	0xbb40ff1a	-0.0029448927
119	0xbe2e55e9	-0.1702496
120	0x3da51115	0.08059899
121	0x3dd2826b	0.102787815
122	0x3d9d65c8	0.07685429
123	0x3d261951	0.040551487
124	0x3d8448d5	0.06459204
125	0x3dd91469	0.10599596
126	0xbc21a076	-0.009864917
127	0xbac55966	-0.001505655
128	0xbb1524cf	-0.0022757535
129	0x3b5c2abf	0.0033594815
130	0x3d7f152d	0.062276054
131	0xbdcb0399	-0.099127956
132	0xbcf3f60e	-0.029780414
133	0xbd0317c7	-0.032005098
134	0x3d4fd032	0.05073566
135	0xbde3ec69	-0.11129076
136	0x3cad69ba	0.021168578
137	0x3ce5c5e6	0.028048467
138	0xbc9978f2	-0.018734429
139	0xbc49b2f0	-0.012310728
140	0xbda72eb7	-0.08163207
141	0x3dab53c9	0.0836559
142	0x3d348c61	0.04407919
143	0xbdca3645	-0.09873632
144	0x3e092026	0.1339117
145	0x3dbb1234	0.09134331
146	0x3dceac46	0.10091452
147	0xbc51ce78	-0.012805574
148	0xbbe75921	-0.0070601855
149	0xbdd89170	-0.10574615
150	0x3cbab1e6	0.022789907
151	0x3d2c17b4	0.042014793
152	0x3d91267a	0.07087417
153	0x3d99bf3c	0.07507178
154	0xbda01cc2	-0.07817985
155	0x3e156e4f	0.1459286
156	0xbd665a2d	-0.056238342
157	0x3d4f2b37	0.050578322
158	0x3d5e7444	0.0543101
159	0x3d91e5e3	0.071239255
160	0x3e061c91	0.13096835
161	0x3dcc23ae	0.09967743
162	0x3dee5447	0.116371684
163	0xbd18c2e5	-0.03729524
164	0x3dd6af95	0.10482708
165	0xbc63a3fa	-0.0138940755
166	0x3d78a016	0.060699545
167	0xbda9fce7	-0.083001904
168	0x3e0218c9	0.12704767
169	0x3de0f961	0.10985065
170	0xbc9860da	-0.01860087
171	0x3dcac98b	0.099017225
172	0xbd4f0ac9	-0.050547395
173	0xbc7722ab	-0.015083949
174	0xbd88c1e0	-0.06677604
175	0xbd706971	-0.058694307
176	0xbd6d170d	-0.05788331
177	0xbd8158c3	-0.06315758
178	0xbda6a52f	-0.08136975
179	0x3c22d17e	0.009937642
180	0xbd7a9629	-0.06117836
181	0xbb3a0a6a	-0.0028387555
182	0xbd2e4db4	-0.042554572
183	0x3d0f99e9	0.03505889
184	0xbb874b3d	-0.004128842
185	0x3d4a1bf4	0.049343064
186	0xbd82e4d6	-0.06391303
187	0xbdcf20e2	-0.10113694
188	0xbcebde24	-0.028792448
189	0xbd1e2cca	-0.038616933
190	0x3d5c2a8e	0.05375152
191	0xbde88d87	-0.11355119
192	0x3a926256	0.0011168222
193	0x3c73615e	0.014854757
194	0xbdce4ad0	-0.10072863
195	0x3d155d9b	0.036466222
196	0xbd5d6d3a	-0.054059245
197	0xbd1f24a2	-0.038853295
198	0xbde089f9	-0.10963816
199	0xbd252265	-0.040316004
200	0xbdaf6904	-0.08564952
201	0xbdd5a3e0	-0.10431647
202	0x3d28b4a6	0.041187905
203	0x3bef9954	0.0073119793
204	0x3b762492	0.0037558419
205	0x3d37d22c	0.04487817
206	0x3d3a0cf1	0.045422498
207	0x3dacd238	0.084385335
208	0x3de1cb74	0.11025134
209	0x3e2a06bc	0.16604131
210	0x3dd23ffd	0.10266111
211	0xbd9e3388	-0.077246726
212	0xbc3f6997	-0.011682889
213	0xbe22eb1d	-0.15910001
214	0xbd87877c	-0.066176385
215	0xbdbd7501	-0.09250832
216	0x3dbba499	0.09162254
217	0x3dc92696	0.09821813
218	0x3c07a9fb	0.008280273
219	0xbdc078da	-0.093980506
220	0xbcea9f09	-0.028640287
221	0x3d233edc	0.03985487
222	0xbd82aadf	-0.06380247
223	0xbd0db530	-0.034596622
224	0x3db5583c	0.0885472
225	0x3b19e0e7	0.002348
226	0x3d53a76e	0.051673345
227	0x3e011966	0.12607345
228	0x3d038985	0.03211357
229	0xbd8f0be0	-0.06984687
230	0x3cb9f996	0.02270202
231	0x3d15181d	0.03639995
232	0xbdf63e92	-0.12023653
233	0xbd0ba77b	-0.03409527
234	0x3aaf6c0c	0.0013383641
235	0xbc9f9e28	-0.019484594
236	0x3da166cc	0.07880935
237	0xbd25f962	-0.040521033
238	0x3dcf7bea	0.101310566
239	0x3ccc6e45	0.024954924
240	0xbdd0fc32	-0.102043524
241	0x3d8ad4af	0.067788474
242	0xbda46f91	-0.08029092
243	0x3b29ef32	0.0025929925
244	0x3da72e5e	0.08163141
245	0xbdadcd22	-0.084863916
246	0xbdbc0ef1	-0.09182537
247	0x3bc73c6c	0.006080201
248	0x3de633f3	0.11240377
249	0xbcc68759	-0.02423446
250	0x3de753e4	0.11295298
251	0x3cf9b2d6	0.030480783
252	0x3d5433ed	0.051807333
253	0xbdaa349d	-0.083108164
254	0x3e0cb4e9	0.13740887
255	0x3ca3f0da	0.020012308

features.4.bias f4 [32]
0	0xbd443381	-0.04790068
1	0x3d4d83f8	0.050174683
2	0x3dc02970	0.093829036
3	0xbca539cb	-0.02016916
4	0x3d7f5228	0.06233421
5	0xbc94d132	-0.018166158
6	0xbcdb8578	-0.026797041
7	0xbc70ed5f	-0.014705031
8	0xbd64d819	-0.05587015
9	0x3d8f1b14	0.069875866
10	0x3c0a0ff0	0.008426651
11	0xbdc3066b	-0.095227085
12	0x3d84c703	0.06483271
13	0xbd505d86	-0.05087044
14	0xbd12b1c8	-0.035814077
15	0x3d02e4d2	0.0319565
16	0xbd1ccd0a	-0.038281478
17	0xbd55f3e0	-0.05223453
18	0xbdbbf529	-0.0917762
19	0xbd2e4182	-0.042542942
20	0xbda49648	-0.080364764
21	0x3d668ecd	0.05628853
22	0xbc85ae03	-0.016318327
23	0x3d5a63ab	0.053317707
24	0x3d0f2063	0.034942996
25	0x3ba29c5e	0.004962488
26	0xbc869ceb	-0.016432246
27	0x3b36080d	0.0027775795
28	0x3d1aadfd	0.037763584
29	0xbdc68723	-0.09693744
30	0xbd620f2e	-0.055190258
31	0x3daf3392	0.08554758

features.5.weight f4 [32]
0	0x3f8699a9	1.0515643
1	0x3f74a279	0.95560414
2	0x3f7bcbe4	0.9835799
3	0x3f839d10	1.0282307
4	0x3f7ac396	0.9795469
5	0x3f812d69	1.0091983
6	0x3f76d7bd	0.9642294
7	0x3f92afee	1.145994
8	0x3f87f2a2	1.0620921
9	0x3f90ddc7	1.1317681
10	0x3f918f62	1.1371882
11	0x3f8c3b1c	1.0955539
12	0x3f80f0d2	1.0073493
13	0x3f705cfc	0.9389188
14	0x3f900350	1.1251011
15	0x3f716cdb	0.94306725
16	0x3f8063dd	1.0030476
17	0x3f76053f	0.96101755
18	0x3f74f688	0.95688677
19	0x3f88f0fc	1.0698543
20	0x3f75a482	0.95954144
21	0x3f82a023	1.020512
22	0x3f84b9e0	1.0369225
23	0x3f7ec321	0.99516493
24	0x3f87d49b	1.0611757
25	0x3f7855e5	0.97006065
26	0x3f7b0599	0.98055416
27	0x3f923cf9	1.1424857
28	0x3f809411	1.0045186
29	0x3f765225	0.9621909
30	0x3f80b5a4	1.0055432
31	0x3f747b16	0.95500314

features.5.bias f4 [32]
0	0xbcb6f118	-0.02233176
1	0x3d8562b7	0.06512969
2	0x3dce69bf	0.10078763
3	0x3d990067	0.0747078
4	0x3d081e3f	0.03323197
5	0x3db739f4	0.089466006
6	0xbbcbd8ed	-0.006220928
7	0x3e17847b	0.14796631
8	0x3d758426	0.05994048
9	0xbe00e28d	-0.12586422
10	0x3d7d70a6	0.061875008
11	0x3dd8b9a2	0.10582282
12	0xbceadccb	-0.028669735
13	0xbd8dccab	-0.06923803
14	0x3d95ca39	0.073139615
15	0x3d7a3534	0.061085895
16	0x3d83aca2	0.064294115
17	0x3d7dcf76	0.06196543
18	0x3d540c25	0.051769394
19	0x3e0c5a1e	0.13706252
20	0x3e105546	0.14095029
21	0x3d8732ed	0.0660151
22	0x3e183a10	0.14865899
23	0x3da3e625	0.08002881
24	0x3dd7fc13	0.10546126
25	0xbcf399f2	-0.029736493
26	0xbd79e5f5	-0.06101032
27	0x3dc926ff	0.09821891
28	0x3d57cea5	0.052687306
29	0x3d937ce6	0.07201557
30	0x3cc3f73e	0.023921605
31	0x3d369a7f	0.044580933

features.5.running_mean f4 [32]
0	0xbf24e192	-0.64406693
1	0x3e92be24	0.2866069
2	0x3e708361	0.23487617
3	0xbe5c1fb8	-0.21496475
4	0x3e9990f9	0.29993418
5	0x3d93ad89	0.072108336
6	0xbe82908d	-0.25500908
7	0xbf22ca43	-0.63589877
8	0xbe6c0483	-0.23048596
9	0xbf83f636	-1.0309513
10	0xbf1becf9	-0.60908467
11	0xbea440d4	-0.3208071
12	0xbf055df9	-0.52096516
13	0xbf01e6d5	-0.50742847
14	0xbeda2628	-0.42607236
15	0x3f3f003f	0.7460975
16	0xbe559caf	-0.20860551
17	0x3d924e5a	0.071438506
18	0x3eb01c07	0.34396383
19	0x3d5f3abd	0.054499377
20	0x3e319f39	0.17345895
21	0xbe6c4f12	-0.23077038
22	0xbe846c64	-0.25863945
23	0x3e72978a	0.2369062
24	0xbf1e5ad1	-0.61857325
25	0x3effb170	0.49940062
26	0x3f89bdb5	1.0761019
27	0xbeb72032	-0.3576675
28	0xbed93e52	-0.4243036
29	0x3f1754a5	0.5911353
30	0xbed3d574	-0.4137379
31	0x3f5f0cf1	0.8712912

features.5.running_var f4 [32]
0	0x3fbcc4f9	1.4747611
1	0x3f40415a	0.7509972
2	0x3f175e4c	0.5912826
3	0x3f04afb2	0.5183059
4	0x3f14ad4b	0.58076924
5	0x3ed8872f	0.42290637
6	0x3f0535ab	0.52035016
7	0x3ff33c07	1.9002694
8	0x3ecc4795	0.39898363
9	0x40679939	3.618727
10	0x3fa29289	1.2700969
11	0x3eca8e11	0.39561513
12	0x3fcfb47f	1.6226958
13	0x3fe193c2	1.7623217
14	0x3f5cda41	0.8627053
15	0x404acbfb	3.1687
16	0x3eb1ea6a	0.34749156
17	0x3e9bb4e0	0.30411434
18	0x3f9462bc	1.1592631
19	0x3ea66cf4	0.32505
20	0x3f79eff6	0.97631776
21	0x3f1f93b7	0.6233477
22	0x3ea49438	0.32144332
23	0x3e8c6a40	0.27424812
24	0x401168d0	2.2720222
25	0x3fbc3060	1.4702263
26	0x40a982cf	5.297218
27	0x3f2ca2e0	0.6743603
28	0x3f79a3ca	0.9751555
29	0x3ff276a1	1.8942453
30	0x3fc3327a	1.5249779
31	0x4075de7f	3.841705

features.8.weight f4 [64, 32, 3]
0	0x3b777ab9	0.0037762357
1	0x3dcb2e73	0.09920969
2	0x3d980941	0.0742364
3	0xbd3bf000	-0.04588318
4	0xbd82ebe3	-0.06392648
5	0x3d859e61	0.06524349
6	0xbbbb446a	-0.0057149427
7	0x3dcdd802	0.10050966
8	0xbdc50c0e	-0.0962144
9	0xbc8ac833	-0.016941166
10	0xbdb3aa83	-0.08772757
11	0xbda20092	-0.07910265
12	0xbdd52635	-0.10407678
13	0xbdbea32d	-0.09308467
14	0xbd0b7e81	-0.03405619
15	0x3d4c5caf	0.049893077
16	0xbcf8e1a5	-0.030381033
17	0xbd688205	-0.05676462
18	0x3db212d4	0.086949974
19	0x3c6eb7a4	0.0145701505
20	0xbd7232e9	-0.059130583
21	0x3d4270d9	0.0474709
22	0x3cf98230	0.030457586
23	0x3dcc5ca9	0.09978611
24	0x3df71d17	0.12066095
25	0x3df2bf18	0.118528545
26	0xbc0b296a	-0.008493761
27	0xbd6416d3	-0.05568583
28	0xbe1162e4	-0.1419788
29	0xbd86a0ae	-0.06573616
30	0x3ddedcfa	0.10881992
31	0xbdfc7bb0	-0.12328279
32	0x3d93fe42	0.0722623
33	0x3cca8241	0.024720313
34	0x3da452c5	0.080235995
35	0x3d717e1d	0.05895816
36	0xbd6c0dfa	-0.057630517
37	0x3cb07e29	0.021544533
38	0xbb71476c	-0.0036816252
39	0x3daf8510	0.085703015
40	0xbce5aa34	-0.02803526
41	0x3d2f0974	0.042733625
42	0xbdc46665	-0.09589843
43	0xbe37fb5c	-0.1796698
44	0x3d180804	0.03711702
45	0xbd458eb5	-0.0482318
46	0xbd426ad1	-0.04746515
47	0xbc1f59f8	-0.00972604
48	0x3abb7f85	0.0014304972
49	0x3d3360c0	0.04379344
50	0xbcb154f8	-0.021646962
51	0xbd664216	-0.05621537
52	0x3d03c44a	0.032169618
53	0x3caf78f1	0.021419974
54	0x3d82fcae	0.06395851
55	0x3bb485bc	0.0055091064
56	0xbd368921	-0.04456437
57	0x3d7e12fc	0.062029824
58	0x3d1484a2	0.0362593
59	0x3cd09be2	0.025464956
60	0xbd6162b1	-0.05502576
61	0xbd904c32	-0.07045783
62	0xbd1a10d7	-0.037613716
63	0xbc57d9f1	-0.01317452
64	0x3c753ab4	0.014967609
65	0xbdc9f27b	-0.098607026
66	0x3ddb7d47	0.10717254
67	0x3cca21ea	0.024674375
68	0xbd9204c8	-0.07129818
69	0x3d89add2	0.06722607
70	0xbd9cb854	-0.07652345
71	0xbd98cc40	-0.074608326
72	0x3d1cf3b9	0.03831837
73	0x3c505adf	0.012716978
74	0x3de613b5	0.112342276
75	0xbdbc56ee	-0.09196268
76	0x3d4cf5e9	0.050039206
77	0x3d16a51b	0.03677855
78	0x3ce3e247	0.027817858
79	0xbd27c489	-0.040958915
80	0xbcd784af	-0.026308386
81	0x3dcde1b1	0.10052813
82	0x3e248c47	0.16069137
83	0xbc7da6c0	-0.015481651
84	0xbe10e467	-0.14149629
85	0xbdf58b01	-0.119894035
86	0xbba9a04f	-0.005176581
87	0xbda3ec81	-0.08004094
88	0xbcd1e465	-0.025621602
89	0xbd575f65	-0.05258121
90	0xbaf53ed1	-0.0018710737
91	0xbd9aafee	-0.07553087
92	0x3d6af75a	0.0573648
93	0xbdf38025	-0.11889676
94	0xbd61a856	-0.05509218
95	0xbcb3cef2	-0.021949265
96	0xbe5672b1	-0.20942189
97	0xbdc94e7f	-0.09829425
98	0xbdf8316c	-0.121188015
99	0xbdebac4f	-0.11507475
100	0x3d33a901	0.043862347
101	0xbd95d05d	-0.07315133
102	0x3c7cf770	0.015439853
103	0xbd86ddca	-0.06585272
104	0xbb3d5fbe	-0.0028896178
105	0x3e0991a2	0.13434461
106	0x3dd02414	0.10163131
107	0xbce664c9	-0.02812423
108	0xbe11c0d1	-0.1423371
109	0xbddb5368	-0.10709268
110	0xbcc52a29	-0.024067955
111	0x3d1398c0	0.036034346
112	0x3d32a54b	0.043614667
113	0x3d02d741	0.031943563
114	0x3d3de12f	0.04635733
115	0xbdeae022	-0.11468531
116	0xbe132862	-0.14370874
117	0xbe22753a	-0.15865031
118	0xbd3af995	-0.045648176
119	0xbe1f917f	-0.15582846
120	0x3dc9d44d	0.09854946
121	0x3ca99a55	0.020703474
122	0x3d433c2c	0.047664806
123	0x3d37ce3c	0.044874415
124	0x3d484d13	0.04890163
125	0x3d444a53	0.047922444
126	0xbe0dac39	-0.13835229
127	0xbe12443b	-0.1428384
128	0xbc9295e7	-0.017893745
129	0xbc7dbbe9	-0.015486696
130	0xbd8e4e6b	-0.06948551
131	0xbdbcf34d	-0.092260934
132	0xbd5e3406	-0.054248832
133	0xbd2acec0	-0.04170108
134	0x3d8584fc	0.065195054
135	0xbe2a15b6	-0.16609845
136	0x3d1e7b5e	0.03869187
137	0xbd69095e	-0.0568937
138	0xbd7c0c86	-0.06153538
139	0xbd8b668a	-0.06806667
140	0xbd834590	-0.06409752
141	0xbe0ca256	-0.13733801
142	0xbcd53abb	-0.026028981
143	0xbd99a199	-0.075015254
144	0xbc1b4e86	-0.009479171
145	0x3cb88d1a	0.02252822
146	0x3d3c8a9c	0.046030626
147	0xbc29abb5	-0.01035588
148	0xbe108dbb	-0.14116566
149	0xbd139463	-0.036030184
150	0xbd4ed06a	-0.050491728
151	0xbdd3dc79	-0.10344786
152	0x3d591811	0.053001467
153	0xbde2e291	-0.1107837
154	0x3cf04d08	0.029333606
155	0xbc81d547	-0.015848769
156	0xbd55cbc1	-0.052196268
157	0x3d37a394	0.044833735
158	0xbe0572ff	-0.13032149
159	0xbd0b413f	-0.03399777
160	0xbddcf63e	-0.107891545
161	0xbd851757	-0.06498592
162	0x3d40e4f4	0.047093347
163	0x3d7a9b4c	0.06118326
164	0xbd3e15c0	-0.04640746
165	0xbc42df23	-0.01189402
166	0xbd100ff5	-0.035171468
167	0xbbc1eba9	-0.0059179855
168	0xbe1f7851	-0.15573241
169	0xbe1ae75d	-0.1512732
170	0xbd879c02	-0.06621553
171	0x3dc6de77	0.097104006
172	0x3d377de2	0.044797786
173	0xbd168312	-0.036746092
174	0x3c347d9b	0.011016275
175	0x3d16bda6	0.036801957
176	0x3b9f878b	0.004868453
177	0xbce5b616	-0.028040927
178	0xbd8c6e92	-0.06857027
179	0x3d26ae87	0.040693786
180	0x3b56cf1d	0.0032777258
181	0x3d1ee5ef	0.0387935
182	0x3d50669f	0.050879117
183	0xbde0aa8d	-0.1097003
184	0x3d23e2b5	0.040011127
185	0xbd4c991f	-0.049950715
186	0x3d5d38d3	0.05400927
187	0x3d63292b	0.055459183
188	0x3d288d3f	0.041150328
189	0x3d1b6dda	0.03794656
190	0x3d9732df	0.0738275
191	0xbda7a0b5	-0.08184949
192	0xbe1513a3	-0.14558272
193	0xbdca1eca	-0.09869154
194	0xbdf1e60a	-0.118114546
195	0x3c77c9e6	0.01512382
196	0xbc99938a	-0.01874711
197	0xbcb9fb5c	-0.022702865
198	0xbd330b59	-0.043711994
199	0xbdb9a9cf	-0.090655915
200	0x3d41a58e	0.047277026
201	0x3d7ac208	0.0612202
202	0x3c793511	0.015210406
203	0x3d88e400	0.066841125
204	0x3d5b3447	0.053516652
205	0x3d805a1e	0.062671885
206	0x3cb1f82e	0.021724787
207	0xbdb7e8f6	-0.08979981
208	0x3d4d4858	0.05011782
209	0xbd93d2ae	-0.07217918
210	0xbd7e57ef	-0.06209558
211	0x3d8e4ea4	0.06948593
212	0x3daf4681	0.085583694
213	0xbe27cc97	-0.16386639
214	0xbcbc3c32	-0.022977922
215	0xbe136eaa	-0.14397684
216	0xbd6b567d	-0.05745553
217	0x3c4b66a7	0.012414611
218	0xbd0e5693	-0.034750532
219	0xbe3f875d	-0.1870398
220	0xbe313169	-0.17304005
221	0xb92a25ba	-0.00016226518
222	0xbd891b0a	-0.066946104
223	0xbdfd93ed	-0.1238173
224	0x3d610f81	0.054946426
225	0xbdc92160	-0.09820819
226	0xbe11a593	-0.14223318
227	0xbc7fdeae	-0.015617056
228	0x3d725659	0.05916438
229	0xbdd067b9	-0.101760335
230	0xbd045332	-0.032305904
231	0xbd599285	-0.053118248
232	0xbda6cdf3	-0.081447504
233	0xbc9d70c8	-0.019218817
234	0xbd4dbae5	-0.050227065
235	0x3cd9e974	0.026600577
236	0xbda3cb36	-0.07997744
237	0x3d848d40	0.06472254
238	0x3da07046	0.078339145
239	0x3c5eca74	0.013598073
240	0xbd31c1cc	-0.04339771
241	0xbbf80c0a	-0.0075697945
242	0xbda6e2a5	-0.08148698
243	0x3ce7ea55	0.02830998
244	0xbd5f151a	-0.054463483
245	0xbcd7c6ee	-0.026339974
246	0x3d37701a	0.044784643
247	0x3cde959d	0.02717095
248	0xbd115fde	-0.035491817
249	0xbdf08ca0	-0.11745572
250	0xbe13fd76	-0.14452156
251	0xbdf4fd09	-0.11962325
252	0xbda729e1	-0.08162285
253	0xbda9a672	-0.082837
254	0x3c38562d	0.011251015
255	0xbdfda9f5	-0.12385932

features.8.bias f4 [64]
0	0xbd76f706	-0.060294174
1	0xbdcfc139	-0.10144276
2	0xbd1df04e	-0.03855925
3	0xbcb92404	-0.022600181
4	0x3d901fc1	0.070373066
5	0xbc68d458	-0.014210783
6	0x3d8a7566	0.06760673
7	0x3d900970	0.0703305
8	0x3d9f5e5a	0.07781668
9	0xbdad70a6	-0.084687516
10	0x3d2b62b2	0.04184217
11	0x3d6ca44a	0.057773866
12	0x3d9ce2d2	0.0766045
13	0xbdb65b5b	-0.089041434
14	0xbd30f8e3	-0.043206107
15	0xbd828759	-0.06373472
16	0xbd34fbd6	-0.044185482
17	0x3d152e57	0.036421146
18	0xbc28f136	-0.010311415
19	0x3d20b7ca	0.039237775
20	0xbdaa5c70	-0.08318412
21	0xbc6df4ed	-0.014523727
22	0x3d39f351	0.04539806
23	0xbd27d59b	-0.040975194
24	0x3c2cc24f	0.010544374
25	0xbd8c245d	-0.06842873
26	0x3db4fe66	0.08837585
27	0xbb13e698	-0.0022567865
28	0x3d017777	0.03160807
29	0x3c4dfe5a	0.012572849
30	0x3b552c12	0.0032527489
31	0x3dc11aed	0.09428964
32	0xbd3fe318	-0.046847433
33	0x3da41067	0.08010941
34	0xbd2d58f3	-0.042321157
35	0xbbb9ab89	-0.0056662005
36	0xbd8866de	-0.06660245
37	0x3cf13457	0.029443903
38	0xbdb3c8c9	-0.08778531
39	0x3ca6dd0c	0.020369075
40	0xbd5ca720	-0.05387032
41	0x3db829ae	0.08992325
42	0x3ddb85af	0.107188575
43	0x3d898b24	0.06715992
44	0xbdb7dd53	-0.08977761
45	0x3cf5af83	0.029990917
46	0xbdb97f25	-0.09057454
47	0x3b9b2b5f	0.004735395
48	0xbd8d7024	-0.06906155
49	0x3d6f133e	0.05836796
50	0xbc6f07bd	-0.014589247
51	0x3d335aca	0.043787755
52	0x3d020b1d	0.03174888
53	0x3d7f00fd	0.062256802
54	0x3da79eab	0.081845604
55	0x3ca29f34	0.019851305
56	0xbd9b169e	-0.07572673
57	0x3d32d267	0.043657687
58	0xbd1bfa0e	-0.038080268
59	0xbcb8bd34	-0.022551157
60	0x3b824431	0.003975414
61	0x3dd2512d	0.10269389
62	0x3d8ef443	0.06980183
63	0xbcaa63de	-0.020799574

features.9.weight f4 [64]
0	0x3f9277a1	1.1442758
1	0x3f78cd4b	0.9718825
2	0x3f6cadc6	0.9245266
3	0x3f8b6cc6	1.089257
4	0x3f989d25	1.1922957
5	0x3f9ce864	1.225842
6	0x3f8f2e40	1.1185989
7	0x3f8302c4	1.0235219
8	0x3f790712	0.97276413
9	0x3f793d01	0.9735871
10	0x3f7117fe	0.94177234
11	0x3f6447fc	0.8917234
12	0x3f76182b	0.9613063
13	0x3f7caa57	0.9869742
14	0x3f82048f	1.0157641
15	0x3f8fce94	1.1234918
16	0x3f7c7940	0.9862251
17	0x3f8b04d1	1.0860845
18	0x3f86d258	1.0532942
19	0x3f7a3ba7	0.9774727
20	0x3f83e979	1.0305625
21	0x3f8b39ef	1.0877055
22	0x3f82b92c	1.021276
23	0x3f8f57c4	1.1198659
24	0x3f6bda3a	0.9212986
25	0x3f6ee9a5	0.93325263
26	0x3f61f28b	0.88260716
27	0x3f75a9c2	0.95962155
28	0x3f87aba0	1.0599251
29	0x3f8bd3dd	1.092403
30	0x3f813967	1.0095643
31	0x3f6fdc15	0.93695194
32	0x3f944da8	1.1586199
33	0x3f860762	1.0471003
34	0x3f81dbad	1.0145165
35	0x3f8e198f	1.110155
36	0x3f677f11	0.9042826
37	0x3f755adf	0.95841783
38	0x3f8f0f4a	1.1176541
39	0x3f753c25	0.957949
40	0x3f84af56	1.0366008
41	0x3f795279	0.9739147
42	0x3f8d6518	1.1046476
43	0x3f6c2c1d	0.9225481
44	0x3f98b589	1.19304
45	0x3f934c09	1.1507579
46	0x3f81a0ef	1.0127238
47	0x3f8e02d6	1.1094615
48	0x3f983a2d	1.1892754
49	0x3f9ad27a	1.2095482
50	0x3f8b5b62	1.0887263
51	0x3f8b6c00	1.0892334
52	0x3f7735cb	0.96566457
53	0x3f824aca	1.0179074
54	0x3f8982b5	1.0743014
55	0x3f74e0cb	0.95655507
56	0x3f877c54	1.0584817
57	0x3f939154	1.1528726
58	0x3f919352	1.1373084
59	0x3f735281	0.95047766
60	0x3f76ca77	0.96402687
61	0x3f782897	0.96936935
62	0x3f8cd2a8	1.1001787
63	0x3f6f369f	0.9344272

features.9.bias f4 [64]
0	0x3d5b34d5	0.05351718
1	0x3d973dc1	0.073848255
2	0x3d47001b	0.048584085
3	0x3d8ffbf9	0.07030482
4	0xbd5bb689	-0.053640876
5	0xbcdce6d7	-0.026965542
6	0x3dd79272	0.10525979
7	0xbd86e320	-0.065862894
8	0x3ded8851	0.11598266
9	0x3d9ff133	0.07809677
10	0xbdbcfdb8	-0.092280805
11	0xbda788c5	-0.081803836
12	0xbc876c5b	-0.01653116
13	0x3d06babf	0.03289294
14	0x3d27b541	0.04094434
15	0x3d518fe9	0.051162634
16	0x3e112f5b	0.14178221
17	0xbd2edeff	-0.042693134
18	0xbcb09cb7	-0.021559102
19	0x3c8d8f94	0.017280377
20	0x3d7785ef	0.060430463
21	0x3d3fe02d	0.04684465
22	0xbdb55b61	-0.0885532
23	0x3da2711f	0.079317324
24	0xbe41f87a	-0.18942443
25	0xbd61da10	-0.0551396
26	0xbdb832c1	-0.089940555
27	0x3d990d80	0.07473278
28	0x3d777535	0.06041451
29	0x3d7b4baa	0.061351456
30	0x3e53438b	0.20631234
31	0xbdba2964	-0.09089926
32	0xbc153552	-0.009106951
33	0x3ced54e2	0.02897114
34	0xbd1e743e	-0.038685076
35	0x3d1026db	0.035193305
36	0xbdc72733	-0.097242735
37	0x3c6a3d58	0.014296852
38	0x3c4e4c03	0.012591365
39	0xbda7e80a	-0.08198555
40	0x3c5a9e75	0.013343443
41	0x3d3e228b	0.04641966
42	0xbc70aabd	-0.014689145
43	0x3cb0d259	0.021584677
44	0x3d919f1b	0.07110425
45	0xbcae4483	-0.021272903
46	0x3c52de09	0.01287032
47	0x3d41deb5	0.04733153
48	0x3d1a003b	0.037597876
49	0x3c805b09	0.015668409
50	0x3d87e5db	0.06635638
51	0xbd310ad7	-0.04322323
52	0xbbeb5a5a	-0.0071824016
53	0xbc9ed719	-0.019389676
54	0x3d912d0e	0.070886716
55	0x3cfca3fe	0.030839916
56	0x3d28966a	0.04115907
57	0x3d2a01fc	0.0415058
58	0xbd42690d	-0.047463465
59	0x3d76c7f9	0.060249303
60	0xbd9812d7	-0.074254684
61	0x3da2874b	0.07935961
62	0xbd3f84c0	-0.04675746
63	0x3c017063	0.00790033

features.9.running_mean f4 [64]
0	0xbe4ca1c1	-0.19983579
1	0xbf8d4915	-1.1037928
2	0xbf7eac01	-0.9948121
3	0x3d795c64	0.060879126
4	0xbf8ad2ce	-1.0845582
5	0xbfba7897	-1.4568051
6	0xbf27d72a	-0.6556269
7	0x3f0d7db4	0.5526993
8	0x3e2f78e2	0.17135957
9	0xbefa269e	-0.48857588
10	0x3ee6080b	0.4492801
11	0x3dd80044	0.10546926
12	0xbd20ea05	-0.03928568
13	0xbef77fb0	-0.48339605
14	0xbeef5d52	-0.46750885
15	0xbe3aee5c	-0.1825499
16	0xbf555e7d	-0.833473
17	0xbf7f751c	-0.9978807
18	0xbe0bfea1	-0.13671352
19	0xbf189332	-0.595996
20	0xbfa16aa7	-1.2610673
21	0xbe509fc6	-0.20373449
22	0xbf287b28	-0.6581292
23	0xbf38c616	-0.72177255
24	0x3ef68670	0.48149443
25	0xbe114629	-0.1418692
26	0x3c988620	0.018618643
27	0xbe72493a	-0.23660746
28	0xbf87eed5	-1.0619761
29	0xbeee1495	-0.46500078
30	0xbf9026e5	-1.126187
31	0xbde7e0e2	-0.1132219
32	0x3f622e2b	0.88351697
33	0xbec3b7ca	-0.38226157
34	0xbf38342c	-0.7195461
35	0xbe056c4f	-0.13029598
36	0x3f297efb	0.6620938
37	0x3ef9b676	0.4877202
38	0xbf82bbd7	-1.0213574
39	0xbf23010c	-0.6367347
40	0x3d30963d	0.04311203
41	0xbef17d63	-0.47165975
42	0xbf790525	-0.97273475
43	0xbf604634	-0.8760712
44	0xbf386248	-0.72024965
45	0xbfaec991	-1.3655263
46	0xbf0b8d8d	-0.54512864
47	0xbeead21c	-0.45863426
48	0xbf87a0c5	-1.0595938
49	0xbf97f018	-1.1870146
50	0xbf509bfc	-0.81488013
51	0xbf7f43c6	-0.9971279
52	0xbe9ad23b	-0.30238518
53	0xbf0ef847	-0.5584759
54	0xbf26940b	-0.65069646
55	0x3f068a4d	0.5255478
56	0xbec718ea	-0.38886195
57	0xbeddcfe3	-0.43322667
58	0xbfa77796	-1.308337
59	0xbf1f0d98	-0.6213012
60	0x3e8ddd09	0.277077
61	0xbe15058c	-0.14552897
62	0xbf7a2dfb	-0.9772641
63	0xbddc1a0a	-0.10747154

features.9.running_var f4 [64]
0	0x3f9c2e67	1.2201661
1	0x3f63b841	0.88953024
2	0x3e9c0379	0.304714
3	0x3f843cc1	1.0331041
4	0x3f0c5560	0.5481777
5	0x3fbd7c20	1.4803505
6	0x3eea6881	0.45782855
7	0x3fbc07c5	1.4689871
8	0x3ee9d137	0.4566743
9	0x3f252135	0.64503795
10	0x3f213c79	0.629829
11	0x3ee52926	0.44757956
12	0x3e437178	0.19086254
13	0x3efb7e11	0.4911962
14	0x3ed9e863	0.4256011
15	0x3f9cd01c	1.225101
16	0x3f6cbf3e	0.9247931
17	0x3f536ea8	0.82590723
18	0x3f2dca1e	0.6788653
19	0x3ef388db	0.4756535
20	0x3f1c7cfa	0.611282
21	0x3f21a9d8	0.63149786
22	0x3eccd44e	0.40005726
23	0x3fea06e6	1.8283355
24	0x3f8a8a33	1.0823425
25	0x3f026be0	0.50945854
26	0x3f7a39d7	0.97744507
27	0x3e96d753	0.29461154
28	0x3f1c13a1	0.6096745
29	0x402ddd56	2.7166343
30	0x3e8d138f	0.27553985
31	0x3f0057da	0.5013405
32	0x3fbe3c7e	1.4862211
33	0x3f300fe9	0.68774277
34	0x3fe5aad4	1.7942758
35	0x3f46f6e6	0.7772049
36	0x3e6d442f	0.23170541
37	0x3f2ca550	0.67439747
38	0x3fc0ad63	1.5052913
39	0x3f009276	0.5022348
40	0x3f145424	0.5794089
41	0x3f2be8ef	0.67152303
42	0x3fba6c43	1.4564289
43	0x3efb5b52	0.4909311
44	0x3f92120c	1.1411757
45	0x3fffe508	1.999177
46	0x3e80c20d	0.2514805
47	0x3fb9fa02	1.4529421
48	0x4007683d	2.1157372
49	0x4003ff77	2.0624673
50	0x40389bb1	2.8845026
51	0x3f7cd05e	0.98755443
52	0x3ec55acf	0.38545844
53	0x3f2d389a	0.6766449
54	0x3f4cd16c	0.8000705
55	0x3ee4f502	0.44718176
56	0x3ee7de31	0.45286706
57	0x3f824096	1.017596
58	0x3f863a47	1.0486535
59	0x3ee42dcf	0.445662
60	0x3e9948dd	0.29938403
61	0x3e8cdf31	0.27514032
62	0x403b3c1c	2.9255438
63	0x3ee1d13b	0.44104943

features.12.weight f4 [64, 64, 3]
0	0x3cc0ac2c	0.023519598
1	0x3dfb6d3a	0.12276693
2	0x3dae96aa	0.08524831
3	0xbd4ef7e2	-0.05052937
4	0x3ce87157	0.028374357
5	0xbd0c1c7f	-0.034206863
6	0xbdab9ca9	-0.0837949
7	0xbdb028a6	-0.08601503
8	0xbd0d71f7	-0.034532513
9	0xbcc0b0b1	-0.023521753
10	0x3d3fd37e	0.046832554
11	0x3d962d03	0.07332804
12	0xbcb8c657	-0.022555513
13	0xbda70b5c	-0.081564635
14	0x3cdff65b	0.027339151
15	0x3cf29c5f	0.02961558
16	0xbd56f412	-0.052478857
17	0xbd810e9f	-0.06301617
18	0xbc5ae98b	-0.013361345
19	0x3d0ed3cd	0.034869958
20	0xbd45b4bd	-0.04826807
21	0xbc0f0c07	-0.008730895
22	0x3b9af36c	0.004728725
23	0xbd771613	-0.060323786
24	0x3da6bb69	0.081412144
25	0x3dc175ee	0.094463214
26	0x3da62af7	0.08113664
27	0xbd558612	-0.052129813
28	0xbb1f9a57	-0.0024353468
29	0xbc54106d	-0.012943369
30	0xbc6f7732	-0.014615821
31	0x3b87ef7c	0.004148422
32	0x3d36c123	0.044617783
33	0xbcf452c6	-0.029824626
34	0xbb591b59	-0.0033127873
35	0xbc1838e1	-0.009290905
36	0x3cb3840b	0.021913549
37	0x3d3e08d5	0.04639514
38	0x3d01e70f	0.031714495
39	0x3d75e1b1	0.06002969
40	0xbd0dcdb1	-0.03461999
41	0x3d484e41	0.048902754
42	0x3c8f7d5a	0.017515827
43	0x3daa4237	0.08313411
44	0xbcfd4aec	-0.030919515
45	0x3dcb7925	0.09935216
46	0x3ded8a46	0.11598639
47	0x3dd10905	0.102067985
48	0x3d3af801	0.04564667
49	0x3b85a503	0.004078509
50	0x3c7e418a	0.015518555
51	0x3c6882e3	0.014191362
52	0xbd8c38dc	-0.068467826
53	0xbdf69b8f	-0.12041389
54	0xbc118555	-0.0088818865
55	0xbde39331	-0.11112059
56	0xbe10e930	-0.14151454
57	0xbd082ec6	-0.03324773
58	0xbc9ee875	-0.019397954
59	0xbb07f4a3	-0.002074518
60	0x3d08d340	0.03340459
61	0xbd848c26	-0.06472044
62	0xbd1bcd5d	-0.038037647
63	0x3d80b675	0.06284801
64	0x3de39ead	0.111142494
65	0x3e0b67e8	0.13613856
66	0x3cc6049b	0.024172118
67	0x3af9e91b	0.0019066663
68	0xbd5364a3	-0.051609647
69	0x3dd8d883	0.10588171
70	0x3d8f4efa	0.069974855
71	0x3ce50c5e	0.027959999
72	0x3ce4819b	0.027893832
73	0x3d7cd853	0.06172974
74	0x3da40820	0.08009362
75	0xbccc5fe8	-0.024948075
76	0xbcb1a2fe	-0.021684166
77	0xbdb79cff	-0.089654915
78	0x3d325d57	0.043546047
79	0xbc84e89e	-0.016224202
80	0x3d0861c7	0.033296373
81	0x3d2f014e	0.042725854
82	0x3da47c24	0.080314904
83	0x3ca734ea	0.020410974
84	0x3b54b9da	0.003245941
85	0x3d0a7b44	0.03380896
86	0xbc67c924	-0.014147077
87	0x3c5906d1	0.013246254
88	0x3d7f7b2f	0.062373336
89	0x3d857654	0.0651671
90	0x3cbf9370	0.023385733
91	0x3ce25b30	0.027631372
92	0xbd063a9b	-0.032770734
93	0x3ca03022	0.019554202
94	0xbd5a5747	-0.05330589
95	0x3cb01d16	0.021498244
96	0x3e142e81	0.14470865
97	0x3d9db9e7	0.07701474
98	0xbc61f9ef	-0.013792499
99	0xbd175fb6	-0.03695651
100	0xbd82ac2b	-0.06380495
101	0xbce3bb86	-0.02779938
102	0x3d7b21e2	0.06131161
103	0xbc9f3081	-0.019432308
104	0xbdd5aab5	-0.104329504
105	0x3d23d86c	0.040001318
106	0x3d64b8b0	0.055840194
107	0x3da37971	0.079821475
108	0x3d88b34d	0.06674824
109	0x3c9ca6ef	0.019122569
110	0x3dcdadc1	0.100429066
111	0x3d4dea34	0.05027218
112	0xbc8f7a21	-0.01751429
113	0xbd9f9f2b	-0.07794031
114	0x3daf23c3	0.08551743
115	0xbdeb78a4	-0.1149762
116	0xbd08e9b0	-0.033425987
117	0xbd19a6e1	-0.037512664
118	0xbd1e6115	-0.038666803
119	0xbc7e3c29	-0.015517273
120	0x3ca934f0	0.020655125
121	0xbdb2d02b	-0.08731111
122	0xbdbcc609	-0.0921746
123	0x3d8ba908	0.068193495
124	0x3c8f55e9	0.01749702
125	0xbc8c90bb	-0.017158857
126	0x3dfacfc4	0.122466594
127	0x3c5c2e70	0.013438806
128	0xbb960e15	-0.0045793154
129	0xbcc4047b	-0.023927918
130	0xbd4362ec	-0.04770176
131	0xbae1f048	-0.0017237747
132	0x3d2078c8	0.039177686
133	0xbdff434e	-0.12464009
134	0xbcd6eb4e	-0.026235249
135	0xbc6e8eea	-0.014560441
136	0xbdf598c9	-0.11992032
137	0xbd885b96	-0.06658094
138	0xbc508a90	-0.012728348
139	0xbd0f58a7	-0.034996655
140	0xbd2255bd	-0.039632548
141	0x3d849851	0.064743645
142	0x3d05712c	0.032578632
143	0x3dc6dcd5	0.09710089
144	0x3c9c7606	0.019099247
145	0xbce8596b	-0.02836295
146	0xbdd2352a	-0.102640465
147	0x3d82cf14	0.06387153
148	0x3c6aca08	0.014330395
149	0xbd46da48	-0.048548013
150	0x3e0590df	0.13043545
151	0xbdd5ce28	-0.10439712
152	0xbdfad77d	-0.122481324
153	0xbd3a2b96	-0.045451723
154	0x3cb32413	0.021867787
155	0x3ca153d2	0.019693289
156	0x3c4faebe	0.012675939
157	0x3da2075e	0.079115614
158	0xbcf14947	-0.029453887
159	0xbba21559	-0.0049463925
160	0x3d914b35	0.07094423
161	0xbc5017c5	-0.01270098
162	0xbce06776	-0.027393084
163	0xbdbca943	-0.092119716
164	0xbdbd059c	-0.092295855
165	0xbd0ab0b3	-0.03385992
166	0x3c651e56	0.013984283
167	0x3de9f308	0.11423308
168	0x3d1ee567	0.038792994
169	0x3d4fcf4b	0.0507348
170	0x3d7f0490	0.06226021
171	0x3cbef358	0.023309395
172	0x3d6fc6ab	0.058539074
173	0x3d7ffee5	0.062498946
174	0x3d9bfa2c	0.07616076
175	0x3cd21969	0.025646882
176	0x3da81ecf	0.08209001
177	0xbc59a347	-0.013283557
178	0x3cae3223	0.021264141
179	0xbd1eb406	-0.038745902
180	0xbc34dc8a	-0.011038909
181	0xbc0461cc	-0.008079957
182	0xbd402277	-0.04690787
183	0x3da5829e	0.08081554
184	0xbae8155b	-0.001770656
185	0xbd32cd21	-0.043652657
186	0x3c618383	0.013764265
187	0xbdb58730	-0.088636756
188	0xbe29cfaa	-0.16583124
189	0x3d375fa3	0.04476894
190	0xbd682f57	-0.05668577
191	0xbdff07db	-0.1245267
192	0x3c3b634d	0.011437249
193	0xbdc9fb9e	-0.09862445
194	0xbdbc5395	-0.091956295
195	0xba11055d	-0.000553211
196	0xbc842f98	-0.016135976
197	0x3c9bc902	0.019016746
198	0x3cb72ba3	0.022359675
199	0x3cf8bf54	0.03036467
200	0xbda8ca22	-0.08241679
201	0x3d03c435	0.03216954
202	0x3d4c3d68	0.04986325
203	0xbd3bc3b3	-0.04584093
204	0x3c0616b1	0.008184121
205	0x3dde8056	0.10864322
206	0xbcf51e9a	-0.029921819
207	0xb9e136a8	-0.00042956066
208	0xbc8ddc60	-0.017316997
209	0xbe59beb0	-0.21264148
210	0xbd4c7b79	-0.04992244
211	0xbcc2446f	-0.023714272
212	0x3d345c96	0.04403361
213	0xbc6ede50	-0.014579371
214	0x3d1208b6	0.03565284
215	0x3d050eca	0.032484807
216	0xbd2fc539	-0.042912696
217	0x3cd57187	0.02605511
218	0xbd13e98b	-0.036111396
219	0xbd25c0a9	-0.04046694
220	0x3d532ba4	0.05155529
221	0x3d35e835	0.044410903
222	0x3c4e24c8	0.0125820115
223	0x3d3b4cd7	0.045727577
224	0xbdd380bf	-0.10327291
225	0xbc857ae8	-0.016293958
226	0xbd7de74c	-0.06198816
227	0x3cb32a04	0.02187062
228	0x3d01a8be	0.031655066
229	0xbd4d62f7	-0.05014321
230	0x3b9f897f	0.0048686857
231	0x3d654152	0.055970497
232	0xbcf180b6	-0.02948032
233	0xbc31b012	-0.010845201
234	0xbbab47e6	-0.005227077
235	0x3d62879e	0.055305116
236	0xbdbe8e34	-0.09304467
237	0x3b8b941a	0.0042595984
238	0xbd96cc76	-0.073632166
239	0xbdcea358	-0.10089749
240	0xbd925936	-0.07145922
241	0xbc5a7faf	-0.013336106
242	0x3d84a30b	0.064764105
243	0x3dce45ae	0.10071884
244	0xba409460	-0.00073463283
245	0x3c6b7453	0.014370996
246	0xbde06868	-0.10957414
247	0xbd10ca2c	-0.035349056
248	0x3c7c6c0c	0.01540662
249	0x3bb49e11	0.005512007
250	0xbd111d52	-0.035428353
251	0x3b9cec23	0.004788892
252	0xbcb83cc8	-0.02248992
253	0x3de4f691	0.11179841
254	0x3cd477ab	0.025935968
255	0x3b15e14e	0.0022869888

features.12.bias f4 [64]
0	0xbc93d571	-0.018046113
1	0xbdcd2d04	-0.10018352
2	0xbb733ccb	-0.0037115093
3	0xbccbb241	-0.024865272
4	0xbd4921cc	-0.049104497
5	0x3d0a529e	0.033770196
6	0x3cfdd715	0.030986348
7	0x3ca8b8cd	0.020595932
8	0xbd464303	-0.04840375
9	0xbccfe892	-0.025379453
10	0xbd68f6f0	-0.056876123
11	0xbbff9757	-0.0078000235
12	0x3cd43c31	0.025907608
13	0x3d8e91af	0.06961381
14	0xbd47d9db	-0.048791748
15	0xbcca9d44	-0.024733193
16	0xbd2bbe5a	-0.04192958
17	0x3d82b068	0.06381303
18	0x3d8b6742	0.06806804
19	0xbd93cc48	-0.07216698
20	0xbd2a45d0	-0.041570485
21	0xbb6d651b	-0.0036223594
22	0xbd6f1046	-0.05836513
23	0xbd91f416	-0.07126634
24	0xbd42fff3	-0.047607373
25	0x3d6be236	0.05758878
26	0x39949d47	0.0002834594
27	0xbd34a4fd	-0.044102658
28	0xbbd00217	-0.0063479054
29	0x3d818f35	0.06326143
30	0xbd4e637a	-0.050387837
31	0x3cd21801	0.025646212
32	0x3c4faa57	0.0126748895
33	0xbda615ef	-0.08109652
34	0x3d5b9761	0.053611163
35	0xbd35ede3	-0.04441632
36	0x3d4c98c5	0.04995038
37	0xbc508838	-0.01272779
38	0x3c349357	0.011021457
39	0xbc1a2ae4	-0.00940964
40	0xbd584040	-0.05279565
41	0x3d22385f	0.03960454
42	0xbd0022b8	-0.03128311
43	0x3cc4d941	0.024029376
44	0x3d8a7b50	0.06761801
45	0xbcc847ed	-0.02444836
46	0xbb946ef2	-0.0045298273
47	0x3cb3bf24	0.021941729
48	0xbcc74bf2	-0.024328206
49	0x3ce3888b	0.02777507
50	0xbd354314	-0.044253424
51	0x3d06aae2	0.03287781
52	0xbce7957f	-0.028269527
53	0xbc8f08e3	-0.017460292
54	0xbc58d770	-0.013234958
55	0x3b7041f1	0.0036660398
56	0x3d24bd62	0.040219672
57	0x3c524d3d	0.012835798
58	0xbcbed40b	-0.02329447
59	0x3d92e3cd	0.07172356
60	0x3d99580b	0.07487496
61	0xbcbf5793	-0.023357188
62	0xbd5a999c	-0.05336915
63	0xbd6017ba	-0.054710127

features.13.weight f4 [64]
0	0x3f82dc87	1.022355
1	0x3f8aa41d	1.0831333
2	0x3f8630bc	1.0483623
3	0x3f85ea46	1.046212
4	0x3f858351	1.04307
5	0x3f856b96	1.0423458
6	0x3f836fd1	1.0268499
7	0x3f884f37	1.0649174
8	0x3f88acfa	1.0677788
9	0x3f85b416	1.0445583
10	0x3f86a784	1.0519872
11	0x3f89b934	1.0759645
12	0x3f856a88	1.0423136
13	0x3f8ed651	1.1159154
14	0x3f825c5b	1.0184435
15	0x3f89df57	1.0771283
16	0x3f862adf	1.0481833
17	0x3f8a5aa7	1.0808915
18	0x3f8347a9	1.0256244
19	0x3f821631	1.0163022
20	0x3f839520	1.0279884
21	0x3f8b0eba	1.0863869
22	0x3f86043f	1.0470046
23	0x3f83896f	1.0276316
24	0x3f871560	1.0553398
25	0x3f84e6f2	1.0382979
26	0x3f8fa098	1.1220884
27	0x3f85b232	1.0445006
28	0x3f8a38ce	1.0798585
29	0x3f8ed372	1.1158278
30	0x3f884835	1.0647036
31	0x3f881ea0	1.0634346
32	0x3f8901ff	1.0703734
33	0x3f863329	1.0484363
34	0x3f80d847	1.0066003
35	0x3f870c31	1.0550596
36	0x3f893bb1	1.0721341
37	0x3f8c1433	1.0943664
38	0x3f85064c	1.0392547
39	0x3f852caa	1.0404255
40	0x3f84837a	1.0352623
41	0x3f8b4442	1.0880206
42	0x3f84785e	1.0349233
43	0x3f885219	1.0650054
44	0x3f8e9a4b	1.1140836
45	0x3f85e9d9	1.046199
46	0x3f8c78a1	1.0974313
47	0x3f8883bd	1.0665203
48	0x3f829f39	1.0204841
49	0x3f857be8	1.0428438
50	0x3f87034c	1.0547881
51	0x3f85e1ee	1.0459573
52	0x3f88391c	1.0642428
53	0x3f84c3b5	1.0372225
54	0x3f8602e4	1.0469632
55	0x3f8be313	1.0928673
56	0x3f8acb5c	1.084331
57	0x3f859c92	1.0438406
58	0x3f824046	1.0175865
59	0x3f881b2b	1.0633291
60	0x3f87dbf5	1.0614
61	0x3f875c40	1.0575027
62	0x3f89668a	1.0734417
63	0x3f884750	1.0646763

features.13.bias f4 [64]
0	0xbd0cbc83	-0.034359466
1	0xbabe342f	-0.0014511402
2	0x3ce5075e	0.027957615
3	0xbc5d534f	-0.013508632
4	0x3ca03e04	0.019560821
5	0x3b97509d	0.004617764
6	0xbc815d53	-0.01579157
7	0x3d205598	0.03914413
8	0x3d543684	0.051809803
9	0x3cd5b881	0.026088955
10	0xbbff01fa	-0.007782218
11	0x3d386b45	0.045024175
12	0xbd1d0ed9	-0.038344238
13	0x3c13a0c0	0.009010494
14	0xbd5e9f96	-0.05435141
15	0x3d507807	0.050895717
16	0x3d44feac	0.048094437
17	0xbc40d359	-0.011769139
18	0x3cdf82ad	0.02728399
19	0xbceb45a7	-0.028719736
20	0x3d26497e	0.04059743
21	0x3d8126c9	0.06306226
22	0xbd1b936d	-0.037982393
23	0x3b9806ae	0.004639468
24	0xbc48c0ec	-0.012253027
25	0xbd2e3887	-0.042534377
26	0x3d7b0bc9	0.061290536
27	0x3d16c0ed	0.036805082
28	0x3c605a01	0.013693334
29	0x3d470e57	0.04859766
30	0xbcc5dc4c	-0.024152897
31	0x3d6d90ed	0.05799954
32	0x3d676011	0.0564881
33	0xbd52b85c	-0.05144535
34	0xbd393793	-0.045219015
35	0x3bf2bf82	0.0074080834
36	0xbd7f6b7e	-0.062358372
37	0x3d0491be	0.032365553
38	0x3ca6c83a	0.020359147
39	0x3c786e17	0.015162966
40	0xbaaaae2e	-0.001302188
41	0xbcee9f9d	-0.029128844
42	0x3af137dd	0.0018403489
43	0x3cf41995	0.029797355
44	0x3d7ac4af	0.06122273
45	0x3cc581d9	0.024109768
46	0xbc41c7d4	-0.011827428
47	0x3d08d651	0.033407513
48	0x3d8865c8	0.06660038
49	0x3cd84176	0.026398402
50	0x3d52cd74	0.051465467
51	0xbc73a8d7	-0.0148717975
52	0x3d1cd6bf	0.038290735
53	0xba0518f6	-0.0005077267
54	0xbcac53db	-0.02103608
55	0x3cb6f7b4	0.02233491
56	0x3cee5b0a	0.029096145
57	0x3d273d45	0.040829916
58	0xbd065813	-0.032798838
59	0x3d1864f6	0.03720566
60	0x3ced96de	0.029002603
61	0x3c8feb17	0.017568154
62	0x3ccb0a22	0.024785105
63	0x3d18bb56	0.037288032

features.13.running_mean f4 [64]
0	0x3e9c9054	0.30578864
1	0xbf96eb68	-1.179059
2	0xbfb2a7a4	-1.395741
3	0xbe91d676	-0.28483933
4	0xbf92f0f8	-1.1479788
5	0xbf15075c	-0.58214355
6	0x3fb83f3c	1.4394298
7	0xc0074936	-2.1138434
8	0x3dc9bf45	0.09850935
9	0xbf0ac00e	-0.541993
10	0x3e08179e	0.13290259
11	0x3e88db97	0.26730034
12	0xbf0c272c	-0.5474727
13	0x3c77e018	0.015129112
14	0x3f02cc6f	0.5109319
15	0xbeda7e2d	-0.4267439
16	0xbe938fab	-0.28820547
17	0x3f35b2fc	0.70976233
18	0x3dd91e13	0.10601439
19	0x3f592f11	0.8483744
20	0xbf597f59	-0.8495994
21	0xbf81b573	-1.0133499
22	0x3f3f84ea	0.74812186
23	0xbdcfb9f5	-0.1014289
24	0x3f90fa91	1.1326467
25	0xbd08acd7	-0.033367958
26	0x3fb3d1ba	1.4048378
27	0xbf8bea61	-1.0930902
28	0x3eb6d364	0.35708153
29	0x3f2e3d37	0.68062156
30	0xbef4c00b	-0.47802767
31	0xbe9d24bd	-0.30692092
32	0xbeb84533	-0.35990295
33	0xbea1dccc	-0.31613767
34	0x3e959634	0.29216158
35	0xbe8c0637	-0.27348492
36	0x3f507e8a	0.81443083
37	0xbf9ff359	-1.2496139
38	0xbd94ff69	-0.07275278
39	0x3ec1b72a	0.37835056
40	0xbe493d1e	-0.1965222
41	0x3fad084e	1.3518159
42	0x3e8b4b15	0.2720572
43	0xbfbedbae	-1.4910791
44	0xbf60e620	-0.8785114
45	0xbfbbed4c	-1.4681792
46	0x3e37f11b	0.17963068
47	0xbf573f45	-0.84080917
48	0x3f08714c	0.5329788
49	0x3f020ad1	0.50797755
50	0x3e4215d3	0.18953638
51	0x3f31b3ec	0.69415164
52	0xbfa68356	-1.300883
53	0x3f3a38e1	0.7274304
54	0x3f818de0	1.0121422
55	0x3f0fb56a	0.5613619
56	0x3f812c17	1.009158
57	0xbf5969da	-0.8492714
58	0x3c9b7ba5	0.018979857
59	0xc0030637	-2.0472543
60	0x3fbcd5a0	1.4752693
61	0x3f3748ad	0.7159527
62	0x3fe0d3ed	1.7564675
63	0xbf74ec5f	-0.95673174
